Output/Imagenet/net (2).pth (torch_old, 476011 bytes, 20 tensors)

conv1.weight f4 [64, 3, 3, 3]
0	0x3d5bcffa	0.05366514
1	0x3e3292b6	0.17438778
2	0x3dd3800e	0.10327159
3	0xbd646d20	-0.055768132
4	0xbc3d5d0e	-0.0115578305
5	0xbd910aa7	-0.0708211
6	0x3c7080dc	0.01467916
7	0x3e4397cb	0.19100873
8	0x3c40e46c	0.01177321
9	0x3be8ab68	0.0071005113
10	0xbe007c63	-0.1254745
11	0x3d018bb4	0.031627372
12	0x3c92c28d	0.017915035
13	0xbc1e4079	-0.009658926
14	0xbe2ac78a	-0.1667768
15	0xbd623fcc	-0.055236623
16	0xbe37e932	-0.1796005
17	0x3de7db9d	0.11321185
18	0x3dac1daa	0.084040955
19	0x3e161f9a	0.14660493
20	0x3d7fbfbe	0.06243872
21	0x3dea9608	0.114543974
22	0xbd88cf99	-0.06680221
23	0x3cefec52	0.029287491
24	0x3ba7b273	0.0051177084
25	0x3e4e42cd	0.2014267
26	0x3e24b016	0.16082796
27	0x3d86b446	0.06577353
28	0xbe8e092f	-0.27741382
29	0x3d4ad973	0.049523782
30	0x3e327b23	0.17429785
31	0xbe2b633f	-0.16737078
32	0xbcd84774	-0.026401259
33	0x3e79ff42	0.2441378
34	0x3da1c253	0.078983925
35	0xbd5d3d12	-0.05401332
36	0xbe0fa6ee	-0.14028522
37	0xbe568e18	-0.20952642
38	0xbe4ba94d	-0.19888802
39	0xbd29e56e	-0.041478567
40	0x3dd7caa1	0.10536695
41	0xbd0194ec	-0.031636164
42	0x3e6db16a	0.2321221
43	0xbb381d60	-0.002809368
44	0x3e32ddf3	0.1746748
45	0xbe363a87	-0.17795764
46	0xbe1bf90e	-0.15231726
47	0xbe6033d9	-0.21894778
48	0x3daff2b6	0.08591215
49	0x3d670235	0.05639859
50	0x3bb1ddb7	0.005428042
51	0x3df7cc4d	0.12099514
52	0x3e42be0a	0.19017807
53	0x3e5bee66	0.2147766
54	0x3d60f986	0.054925464
55	0xbccc76c8	-0.024958983
56	0x3da8a470	0.08234489
57	0xbe73e5f0	-0.23818183
58	0xbe2ef775	-0.17086585
59	0x3e2c7517	0.16841541
60	0xbc15ae3d	-0.00913578
61	0xbe028b37	-0.12748419
62	0x3e1f4fcf	0.15557788
63	0x3dd9b909	0.10630996
64	0x3e457d08	0.19285977
65	0xbb70def3	-0.0036753982
66	0xbda2bc75	-0.079461016
67	0x3d4e8864	0.05042304
68	0xbe0b8b1e	-0.13627288
69	0xbe8121d8	-0.25221133
70	0x3dc69d63	0.09697988
71	0x3dd56c4f	0.10421049
72	0xbded8531	-0.1159767
73	0x3e618735	0.22024234
74	0x3e1e0703	0.15432362
75	0xbe66558f	-0.22493576
76	0xbe1ad1fb	-0.15119164
77	0x3dd8082b	0.10548433
78	0xbe76508c	-0.24054164
79	0x3d90bfcb	0.070678316
80	0x3e082735	0.13296206
81	0xbe07ea4c	-0.13272971
82	0x3b4ca1c5	0.0031224352
83	0x3e16f5b5	0.14742167
84	0xbe62b811	-0.22140528
85	0x3e0e320c	0.13886279
86	0x3e0d78f1	0.13815667
87	0x3ce5ac65	0.028036306
88	0x3d24a142	0.04019285
89	0xbde57502	-0.11203958
90	0xbe3f8fd4	-0.1870721
91	0xbe317f18	-0.17333639
92	0xbe250374	-0.16114599
93	0x3e363358	0.17793024
94	0x3d2b3127	0.041794922
95	0x3cce91ae	0.02521595
96	0xbcf98a85	-0.03046156
97	0x3e53a7b9	0.2066945
98	0x3e3d7648	0.18502152
99	0xbe23dde5	-0.16002615
100	0xbe269889	-0.16269125
101	0xbd6a10e6	-0.05714502
102	0x3dbaa00e	0.09112559
103	0x3e1ce3e5	0.1532131
104	0xbda63858	-0.081162155
105	0x3e31f3df	0.17378186
106	0xbd43b3c1	-0.04777885
107	0x3ba5964b	0.0050533167
108	0x3e2ece3b	0.17070858
109	0x3d06419d	0.032777417
110	0xbe18cd8a	-0.14922157
111	0xbda12843	-0.078690074
112	0xbdff9eca	-0.124814585
113	0xbdc30cbe	-0.09523915
114	0x3e212d59	0.15739955
115	0x3da19252	0.078892365
116	0x3ddf5b52	0.1090609
117	0x3ded4a3a	0.11586423
118	0xbd0f6f86	-0.035018466
119	0x3e3e46eb	0.1858174
120	0x3d1488af	0.036263164
121	0xbd9587d9	-0.073013015
122	0x3d77b33b	0.060473662
123	0xbe77c086	-0.24194536
124	0xbe02e8a9	-0.12784065
125	0xbe5b259f	-0.2140107
126	0x3b8087c9	0.003922437
127	0xbca21148	-0.019783631
128	0x3d4113b4	0.04713793
129	0xbd054f93	-0.03254659
130	0x3e0e91c8	0.13922799
131	0x3e300716	0.17190203
132	0xbe9a8e02	-0.30186468
133	0x3dafd1a1	0.085849054
134	0x3d83a97f	0.06428813
135	0xbe987c2b	-0.29782233
136	0xbe805e3f	-0.25071904
137	0x3c3d9fa8	0.01157371
138	0x3de76175	0.11297885
139	0x3d0ce0a8	0.034393936
140	0x3d4c0778	0.04981181
141	0xbc63d665	-0.013906096
142	0x3cd0b732	0.02547798
143	0x3e906da5	0.28208652
144	0xbe5412f1	-0.2071035
145	0xbd87e888	-0.06636149
146	0x3d819e98	0.063290775
147	0x3d9a2cbf	0.07528066
148	0xbda34816	-0.07972734
149	0x3dc16c25	0.09444455
150	0x3db7209c	0.089417666
151	0xbd7188f8	-0.058968514
152	0x3e0ab02c	0.13543767
153	0xbdcb5cc9	-0.09929807
154	0xbe346592	-0.17616871
155	0xbe797b42	-0.24363425
156	0xbd3a73f1	-0.045520727
157	0x3e465379	0.1936778
158	0x3d96617c	0.073428124
159	0x3e1fcbe5	0.15605123
160	0xbd8664bd	-0.06562183
161	0x3e6c8619	0.23098029
162	0xbb731e90	-0.0037097074
163	0xbd70e4ea	-0.05881206
164	0x3e3f1357	0.18659721
165	0xbe1635f3	-0.14669017
166	0x3d53add1	0.051679436
167	0xbdaaf00a	-0.08346565
168	0x3df3e16b	0.119082294
169	0x3e2717f7	0.16317736
170	0x3dce8862	0.10084607
171	0xbe013a1b	-0.12619822
172	0xbb473c4d	-0.0030400932
173	0x3c11021f	0.008850603
174	0xbe3c09c6	-0.18363103
175	0x3d4c60c3	0.049896967
176	0x3db03517	0.08603876
177	0xbdff04c9	-0.124520846
178	0x3e2a0188	0.16602147
179	0x3db09849	0.08622796
180	0xbb8b3c67	-0.004249144
181	0x3da426fe	0.0801525
182	0xbddf7ae9	-0.10912115
183	0x3de965c5	0.11396364
184	0xbc1abed5	-0.009444912
185	0xbd292426	-0.04129424
186	0xb95f7023	-0.00021308711
187	0x3e0f3a8f	0.13987182
188	0x3e309867	0.17245637
189	0xbd7445d5	-0.05963691
190	0xbdf7750f	-0.12082874
191	0x3e095f94	0.13415366
192	0xbddb049b	-0.10694238
193	0x3d6b9a35	0.05752011
194	0x3ba956d8	0.0051678233
195	0xbdccabb4	-0.09993687
196	0xbe021824	-0.12704521
197	0x3e133708	0.14376462
198	0xbdf2b501	-0.1185093
199	0x3de94952	0.11390938
200	0x3dd65398	0.10465163
201	0xbd6012f7	-0.054705586
202	0xbd454fad	-0.048171688
203	0x3dd71080	0.10501194
204	0x3d9a2f6e	0.07528578
205	0x3e38cd21	0.18047
206	0xbd8f27d9	-0.06990022
207	0xbd003695	-0.031302053
208	0xbe16390d	-0.146702
209	0x3dc65c61	0.09685589
210	0x3cc72608	0.024310127
211	0x3d8c5c7b	0.06853577
212	0x3e1469f6	0.14493546
213	0xbc7abded	-0.015304071
214	0x3e12eeef	0.14348958
215	0x3e2866d5	0.16445477
216	0x3e1481d1	0.14502646
217	0x3d2c4609	0.04205898
218	0xbc1c4ecd	-0.009540272
219	0x3d134122	0.035950787
220	0x3d46a427	0.04849639
221	0xbd476f9e	-0.04869043
222	0x3c36aa1f	0.0111489585
223	0xbd97fd71	-0.07421387
224	0x3d2e8a68	0.042612463
225	0xbdb483a9	-0.08814175
226	0x3b24853d	0.002510383
227	0xbe290725	-0.16506632
228	0x3b77304b	0.0037717994
229	0x3e167b6f	0.14695524
230	0xbd3b88bf	-0.045784708
231	0x3dd94782	0.10609342
232	0xbd056010	-0.032562315
233	0x3df4ab01	0.11946679
234	0xbdb98da2	-0.090602174
235	0x3e009826	0.1255804
236	0xbe3bde98	-0.18346632
237	0x3e15bc58	0.14622629
238	0xbdb6b060	-0.089203596
239	0x3e1710bf	0.14752482
240	0xbe2ce096	-0.16882548
241	0x3e06c251	0.13160063
242	0xbd480b17	-0.0488387
243	0xbd7a1760	-0.06105745
244	0x3ddd63fd	0.10810087
245	0x3e04f9fb	0.12985985
246	0x3c8ba951	0.01704851
247	0x3dabe150	0.08392584
248	0x3dbd0574	0.09229556
249	0xbd4c3efd	-0.049864758
250	0x3e34eb66	0.17667922
251	0x3d11285d	0.035438884
252	0xbe738fbe	-0.23785302
253	0xbe4675fe	-0.19380948
254	0x3e462a2d	0.19352026
255	0x3d884735	0.06654207

conv1.bias f4 [64]
0	0xbedb6e46	-0.4285757
1	0x3f192319	0.5981918
2	0x3d238b3d	0.03992771
3	0xbe90859a	-0.2822693
4	0xbe3a44ea	-0.18190351
5	0x3ec3eaef	0.38265178
6	0xbda4f0b4	-0.08053723
7	0xbeb225fb	-0.34794602
8	0xbe469270	-0.19391799
9	0x3e3c4f0a	0.18389526
10	0x3da97481	0.082741745
11	0xbe4653a4	-0.19367844
12	0xbeb060cc	-0.3444885
13	0xbdea47c6	-0.11439471
14	0x3eb6cf46	0.35705012
15	0xbd795394	-0.060870722
16	0x3e9f20ba	0.31079656
17	0xbea18b25	-0.3155147
18	0x3f2c8d09	0.674027
19	0xbea30b29	-0.31844452
20	0xbeb12abb	-0.34602913
21	0x3e5750bf	0.21026896
22	0xbea51ed2	-0.32250077
23	0x3da9182a	0.08256562
24	0x3ec2af5f	0.38024423
25	0xbe70c8d2	-0.23514107
26	0x3d8929b6	0.06697409
27	0x3e48b3fc	0.19599909
28	0xbe8f52ee	-0.27992958
29	0x3e310da4	0.1729036
30	0x3f13dee0	0.57761955
31	0x3e8d58db	0.27606854
32	0x39ea5da2	0.0004470172
33	0xbe9405a3	-0.2891055
34	0x3ee34481	0.44388202
35	0x3f39835b	0.7246606
36	0x3f097e24	0.537081
37	0x3ec8c8f6	0.3921582
38	0xbe6b62c8	-0.22986901
39	0x3edb5d53	0.42844638
40	0xbe5b851f	-0.214375
41	0x3f07a538	0.5298648
42	0x3e25a5db	0.1617655
43	0x3eab88f1	0.33502916
44	0x3b56b9cc	0.0032764552
45	0xbe573da8	-0.21019614
46	0x3ba33bcf	0.004981495
47	0x3d48efaa	0.049056686
48	0x3ed97c1b	0.42477497
49	0x3dddd652	0.10831894
50	0x3ea89697	0.3292739
51	0xbc86e601	-0.016467096
52	0x3e7e5445	0.24836834
53	0xbe8840ed	-0.26612034
54	0x3ebc65d7	0.36796448
55	0x3ed0f9ee	0.4081568
56	0xbe21cecc	-0.15801543
57	0xbe2faad6	-0.17155012
58	0x3f30d128	0.6906915
59	0xbc1f4436	-0.009720853
60	0xbe522f87	-0.20525943
61	0x3e921834	0.2853409
62	0x3e270490	0.16310334
63	0x3e1fb174	0.15595037

conv2.weight f4 [64, 64, 3, 3]
0	0x3c6b2f8f	0.014354601
1	0x3c6734e0	0.0141117275
2	0x3d09eef7	0.03367516
3	0x3b6fdf5b	0.0036601636
4	0xbc7001c5	-0.014648859
5	0x3bb69298	0.0055716746
6	0x3cf1fb2c	0.029538713
7	0x3ccd9a7a	0.025098074
8	0xbd35b511	-0.04436213
9	0x3b81f102	0.003965498
10	0xbd38fc10	-0.04516226
11	0xbccd0170	-0.0250251
12	0x3c15e103	0.009147885
13	0xbc876ac3	-0.0165304
14	0xbd2dff2c	-0.04247968
15	0x3ca2840e	0.01983836
16	0xb993d215	-0.00028194548
17	0x3cea5cde	0.028608736
18	0x3c39f218	0.011349224
19	0xbcc74bac	-0.024328075
20	0xbc79a913	-0.015238064
21	0x3c4717c8	0.012151666
22	0xbd0939fc	-0.033502564
23	0xbd3298e9	-0.043602858
24	0xbd29c0a2	-0.041443475
25	0x3cdc4470	0.026888102
26	0x3d0afe52	0.033933945
27	0xba00dc29	-0.0004915619
28	0x3d074964	0.033028975
29	0xbb34aac3	-0.0027567602
30	0x3cd26dca	0.025687117
31	0x3cd1ecc3	0.025625592
32	0xbd2af328	-0.041735798
33	0x3c39b3da	0.011334384
34	0xbcd6e791	-0.026233466
35	0xbd109948	-0.03530243
36	0xbcc1e611	-0.023669275
37	0x3ccd7a8b	0.025082847
38	0xbd1eac8f	-0.038738783
39	0xbd0ce8dc	-0.03440176
40	0xbca33e17	-0.019927068
41	0xbcc3d46a	-0.023904998
42	0xbcf0183f	-0.029308436
43	0xbd37973a	-0.044821955
44	0x3c1313e9	0.008976915
45	0x3c2b87f5	0.010469426
46	0xbd141737	-0.036154952
47	0x3caa90ef	0.020821063
48	0xbc1ca195	-0.0095600085
49	0x3bb6e146	0.005581054
50	0x3cdc897c	0.026921026
51	0xbd32b949	-0.043633733
52	0x3c471750	0.012151554
53	0xbcdec9cd	-0.027195835
54	0x3c3ee1bf	0.011650502
55	0xbc803520	-0.015650332
56	0xbd32a836	-0.04361745
57	0xbd2204ba	-0.03955529
58	0x3c36846f	0.011139973
59	0x3d06bbb6	0.03289386
60	0xbaca8909	-0.0015452217
61	0x3b71a4be	0.0036871876
62	0xbcb2d0ad	-0.02182802
63	0xbd2f2d4b	-0.042767804
64	0xbd15c4f1	-0.03656477
65	0x3ca6a22c	0.020341001
66	0xbc372c17	-0.011179945
67	0xbb0b0739	-0.0021214022
68	0xbce778ef	-0.028255908
69	0xbd2cd31d	-0.04219352
70	0x3aa4a3f8	0.0012561074
71	0xbd15326c	-0.03642504
72	0x3c962a04	0.018330581
73	0xbcbf642a	-0.023363192
74	0xba64a5f7	-0.00087222405
75	0x3b370ade	0.0027930061
76	0xbd2ec2fd	-0.042666424
77	0x3b62c130	0.0034600012
78	0xbcf63a70	-0.030057162
79	0x3c8f245a	0.017473388
80	0x3c3f346f	0.011670216
81	0xbc933f2a	-0.017974455
82	0xbc6f2298	-0.01459565
83	0xbcc92583	-0.02455402
84	0xbc802014	-0.015640296
85	0x3c706626	0.014672792
86	0xbceb1588	-0.02869679
87	0xbc230774	-0.009950507
88	0x3cf6d0f0	0.030128926
89	0x3b9f6641	0.0048644845
90	0xbd221ffd	-0.039581288
91	0xbd07baae	-0.033137016
92	0xbd38f4be	-0.04515528
93	0x3c3573aa	0.01107494
94	0xbd1627bd	-0.03665899
95	0x3ad7df23	0.0016469698
96	0xbbe64557	-0.007027309
97	0x3bf40a3a	0.007447508
98	0x3ceb0602	0.028689388
99	0xbcacea45	-0.021107802
100	0xbb2b5f97	-0.0026149505
101	0x3c1ff949	0.009764024
102	0x3c4f37b7	0.012647561
103	0x3c9bc441	0.01901448
104	0xba2378b0	-0.00062359404
105	0x3ccf9eeb	0.025344333
106	0xbd3239af	-0.043512043
107	0x3d13e56f	0.036107477
108	0xbaa258bd	-0.0012386065
109	0xbc84a118	-0.016190097
110	0xbcedaa66	-0.029011916
111	0xbc6cd1d0	-0.01445432
112	0xbc3eb005	-0.011638646
113	0x3c9c4305	0.019074926
114	0xbbe85acb	-0.0070909015
115	0xbcbd0edb	-0.023078373
116	0xbc9e0a34	-0.019291975
117	0x3d00e24e	0.03146582
118	0x3c1b9f50	0.009498432
119	0xbd17bed3	-0.03704722
120	0x3c3eabf3	0.011637676
121	0xbd1812ef	-0.03712743
122	0xbc8a1d68	-0.016859725
123	0xb9d3738e	-0.0004033115
124	0xbbbd0728	-0.0057686754
125	0x3bcd7bf1	0.0062708785
126	0x3cec46f2	0.028842423
127	0xbb8930b2	-0.004186713
128	0xbb7d180b	-0.0038619067
129	0x3c39f6bc	0.01135033
130	0xbc99c917	-0.018772645
131	0x3cf337c8	0.029689685
132	0x3d0ea62e	0.03482645
133	0x3c2b00ff	0.010437249
134	0x3d081828	0.033226162
135	0x3c830ad5	0.015996376
136	0x3c8beee2	0.017081682
137	0x3ccf28a7	0.02528794
138	0x3bc5ce98	0.006036591
139	0xbbee693d	-0.007275729
140	0xbbfdf4d1	-0.0077501317
141	0xbc6e3d89	-0.014541038
142	0xbc6fb1e5	-0.014629816
143	0xbcf8c66d	-0.030368054
144	0xbce80677	-0.028323395
145	0x3a4f74a4	0.0007913804
146	0x3b871c3b	0.0041232384
147	0x3c2052cc	0.009785365
148	0xbcab7e5a	-0.020934273
149	0xbc9e7053	-0.01934067
150	0x3cf489cc	0.029850863
151	0xbc409c55	-0.011756022
152	0x3bd516b0	0.0065029487
153	0xbbf97673	-0.007612997
154	0x3c9e1e5d	0.019301588
155	0xbd3a0252	-0.04541237
156	0xbb3db6a8	-0.0028947983
157	0x3b9c0e5e	0.004762455
158	0x3cadfdef	0.021239249
159	0x3cb72470	0.022356242
160	0x3c81d0f6	0.01584671
161	0x3c5dd843	0.01354033
162	0x3d009a90	0.031397402
163	0xbd20fadd	-0.039301742
164	0x3c95fd3f	0.018309234
165	0xbd20d1d8	-0.039262623
166	0xbc0b7d32	-0.008513736
167	0xbbdd1e68	-0.0067480095
168	0xbd249b99	-0.040187452
169	0xbc99514c	-0.018715523
170	0xbbe5b2d3	-0.007009843
171	0xbd364d0a	-0.044507064
172	0xbd14a344	-0.036288515
173	0xbce7a114	-0.02827505
174	0xbd15f8c5	-0.0366142
175	0x3ca90774	0.020633437
176	0xbcc85a6a	-0.024457175
177	0xbd1cdcbc	-0.038296446
178	0x3b195605	0.002339722
179	0x3c28d042	0.010303559
180	0xbcc00b73	-0.02344296
181	0x3ca742aa	0.02041753
182	0xbc1f4df9	-0.00972318
183	0x3c793b75	0.01521193
184	0x3c279f4a	0.010230849
185	0x3c13ab4c	0.009013008
186	0xbcb7351d	-0.022364194
187	0xbcc888ae	-0.024479236
188	0xbcc80b7d	-0.02441954
189	0xbcab9f09	-0.020949857
190	0xbc440837	-0.011964849
191	0x3c84744b	0.016168734
192	0xbcf17aa7	-0.02947743
193	0xbd3eb8f2	-0.046563096
194	0x3ccc05a0	0.024905026
195	0xbcae9927	-0.021313263
196	0xbd4bf336	-0.04979249
197	0xbd432f09	-0.047652278
198	0xbc53c324	-0.012924943
199	0xbcb748b4	-0.022373535
200	0xbcfa0f6f	-0.030524937
201	0x3afffb52	0.0019529855
202	0x3cb5c71f	0.022189675
203	0x3c9d70f8	0.019218907
204	0xbca3e6b3	-0.020007467
205	0xbc6e9426	-0.0145616885
206	0xbd0d8447	-0.034549978
207	0xbd0f45d4	-0.034978703
208	0xbd0bc69c	-0.034124956
209	0xbc83b235	-0.016076187
210	0xbc1da650	-0.0096221715
211	0xbcee13d9	-0.029062198
212	0xbd3474d8	-0.044056743
213	0x3c16109a	0.009159232
214	0xbcebe6d2	-0.028796587
215	0xbd0c825f	-0.03430402
216	0x3bc544dd	0.006020172
217	0xbbaa364c	-0.005194461
218	0xbc955054	-0.01822678
219	0xbcc51a65	-0.024060437
220	0x3c278f6d	0.010227066
221	0x3d18a67f	0.037268158
222	0xbb8e098d	-0.0043346346
223	0xbc763122	-0.015026363
224	0xbd32bdbb	-0.043637972
225	0xbcd62a81	-0.026143314
226	0xbc8fb06e	-0.017540183
227	0x3c121662	0.008916469
228	0xbc6ce8d1	-0.014459805
229	0xbc4bfe53	-0.012450772
230	0x3b60681c	0.0034241742
231	0x3d1b87e7	0.037971403
232	0xbcb6b099	-0.022301005
233	0x3c99fc7a	0.018797148
234	0xbcb20abe	-0.021733638
235	0xbcfb05f4	-0.030642487
236	0xbcbd6ddc	-0.023123674
237	0xbd0185e2	-0.03162182
238	0xbcf0ef42	-0.029410962
239	0xbb2992db	-0.0025874886
240	0x3cb9d844	0.022686131
241	0x3ba2558f	0.004954047
242	0xbd256685	-0.040380973
243	0xbb32c061	-0.0027275311
244	0xbcd80024	-0.026367255
245	0x3c6fe83f	0.014642774
246	0xbccb2b1d	-0.024800831
247	0x3c66d9cb	0.014090012
248	0x3cf8b033	0.030357456
249	0xbc67db63	-0.014151427
250	0xbc039079	-0.00803005
251	0xbca95894	-0.02067212
252	0xbd261b4d	-0.04055338
253	0xbc9c2d85	-0.019064674
254	0xbd080e2f	-0.03321665
255	0x3bb51cb3	0.005527103

conv2.bias f4 [64]
0	0x3b1f30ee	0.002429064
1	0x3f6e77f8	0.9315181
2	0x3e33f48e	0.17573759
3	0x3d6c5ce0	0.05770576
4	0xbd1c96c6	-0.038229726
5	0x3f463c3b	0.77435654
6	0x3ed28f9b	0.41125187
7	0x3f44f98a	0.76943266
8	0x3e7d7388	0.24751103
9	0x3ddc848a	0.10767467
10	0x3ee5e079	0.44897822
11	0x3dff3ea7	0.12463122
12	0xbd6db44a	-0.058033265
13	0x3e79afe3	0.24383502
14	0xbd85b146	-0.06527953
15	0x3ecd25b7	0.40067837
16	0x3e07d4b1	0.13264729
17	0x3f4119b8	0.7542987
18	0x3ccbfc21	0.024900498
19	0x3efd0d93	0.4942442
20	0xbda23a05	-0.079212226
21	0x3f12bd96	0.57320535
22	0x3dc36e6f	0.09542548
23	0x3e8b787a	0.27240354
24	0x3f26f4e0	0.652174
25	0x3e99a6b2	0.3000999
26	0x3edf2ece	0.43590397
27	0x3e5420e5	0.20715673
28	0x3e9b62f0	0.3034892
29	0x3f4cbe3c	0.79977775
30	0x3daf47fa	0.0855865
31	0x3d83eedb	0.064420424
32	0xbc248227	-0.010040796
33	0xbd75b9b7	-0.059991565
34	0x3ebc5a9d	0.36787882
35	0x3c061bb1	0.008185313
36	0x3f19e3d2	0.6011325
37	0x3eb8158c	0.3595394
38	0x3c5f38d9	0.013624393
39	0x3f60870e	0.8770608
40	0xbc4db73c	-0.0125558935
41	0x3f01d671	0.50717837
42	0xbb47194b	-0.0030380066
43	0x3eeb743f	0.45987126
44	0xbdc179b3	-0.094470404
45	0x3db2be72	0.08727731
46	0x3ec6c510	0.38822222
47	0x3f1274a4	0.5720923
48	0xbc8ccbb4	-0.017186977
49	0x3ec7da60	0.39033794
50	0x3da32aaa	0.07967122
51	0xbaf08cbf	-0.0018352492
52	0x3ed3c52b	0.41361365
53	0x3cef9806	0.029247295
54	0xbcf48f68	-0.029853538
55	0x3cbe108e	0.023201253
56	0x3f458c5c	0.77167296
57	0xbdb1283e	-0.08650254
58	0x3f0816ea	0.53159964
59	0x3ed6b27c	0.41933048
60	0x3ef6b0a5	0.48181644
61	0x3f25545c	0.6458185
62	0x3be21eea	0.006900658
63	0xbd8f7e5b	-0.07006522

bn1.running_mean f4 [64]
0	0x00000004	6e-45
1	0x406126b3	3.517987
2	0x3ff53080	1.9155426
3	0x3fc5f870	1.5466442
4	0x00000004	6e-45
5	0x406428bf	3.564987
6	0x406b1607	3.6732194
7	0x40415dc6	3.0213485
8	0x406c92f6	3.6964698
9	0x4025969d	2.5873177
10	0x40835caf	4.105064
11	0x40324678	2.785551
12	0x00000004	6e-45
13	0x40437349	3.0539114
14	0x3c1201f8	0.008911602
15	0x405ec5c8	3.4808216
16	0x3fbd2eb6	1.477988
17	0x4053fa07	3.3121355
18	0x3fba655e	1.4562185
19	0x401b10b8	2.4228954
20	0x3e1b67d9	0.15176333
21	0x40811302	4.0335703
22	0x4005d787	2.0912797
23	0x40838c04	4.1108418
24	0x40475213	3.1143844
25	0x404a5244	3.161271
26	0x40023412	2.0344281
27	0x401cc393	2.449437
28	0x4086f7bf	4.2177424
29	0x404f4550	3.2386055
30	0x4097db29	4.745503
31	0x3fb36256	1.4014385
32	0x00000004	6e-45
33	0x3d405f6d	0.046966005
34	0x408705cd	4.219458
35	0x3f9020ca	1.1260006
36	0x401e9291	2.4776957
37	0x408c40d6	4.3829145
38	0x00000004	6e-45
39	0x406f1b66	3.7360473
40	0x3ea773d2	0.3270555
41	0x40aa8128	5.328266
42	0x40050c2a	2.0788674
43	0x403e1594	2.970067
44	0x3e095565	0.13411482
45	0x40008de1	2.0086596
46	0x4036d95f	2.8570173
47	0x402ed858	2.7319546
48	0x2009dfb9	1.1678375e-19
49	0x4043525b	3.0519016
50	0x40210997	2.5162103
51	0x408f39ed	4.475821
52	0x4095faca	4.686864
53	0x00000004	6e-45
54	0x3c379418	0.011204742
55	0x3fe7ba67	1.810376
56	0x405a98d8	3.4155788
57	0x3e307f73	0.17236118
58	0x402a57dd	2.6616127
59	0x409adc2d	4.839377
60	0x402ed3f8	2.7316875
61	0x40689114	3.6338549
62	0x00000004	6e-45
63	0x402ab583	2.6673286

bn1.running_var f4 [64]
0	0x00000004	6e-45
1	0x3fd9283a	1.6965401
2	0x3f93b6a8	1.1540117
3	0x4028efd0	2.639637
4	0x00000004	6e-45
5	0x3fdd2d59	1.7279464
6	0x405d5eda	3.4589143
7	0x3fa87caf	1.316305
8	0x404bce30	3.1844597
9	0x4097c20c	4.7424374
10	0x402df71b	2.7182071
11	0x4025fbe2	2.5934987
12	0x00000004	6e-45
13	0x3faa96f1	1.3327314
14	0x3ca3d9a1	0.020001234
15	0x3fe8193c	1.8132701
16	0x4016de86	2.3573318
17	0x3fb5da28	1.4207201
18	0x401daeea	2.463801
19	0x3fb016fa	1.3757012
20	0x3eec1e5c	0.46116912
21	0x40874b69	4.2279553
22	0x4081f901	4.061646
23	0x40a001bc	5.0002117
24	0x3fad5c14	1.3543725
25	0x3ffb9838	1.9655828
26	0x3f91ea9b	1.1399721
27	0x3fa191f6	1.2622669
28	0x40333711	2.800236
29	0x3fd60f00	1.6723328
30	0x40947f70	4.6405563
31	0x3fd14d34	1.6351686
32	0x00000004	6e-45
33	0x3dd4ea0f	0.10396206
34	0x40370d90	2.8602028
35	0x3ffbb351	1.9664098
36	0x3fb340de	1.4004171
37	0x40b3a502	5.6138926
38	0x00000004	6e-45
39	0x3fb04671	1.3771497
40	0x3f829477	1.0201558
41	0x409dace0	4.927353
42	0x404c54fe	3.1926875
43	0x3fab4650	1.3380833
44	0x3eeead8e	0.46616787
45	0x40148f51	2.3212473
46	0x3f709667	0.93979496
47	0x3fa03d3e	1.251869
48	0x1fe9bf57	9.8995884e-20
49	0x3fc46519	1.5343353
50	0x4053cf89	3.309542
51	0x412f7e35	10.968312
52	0x407139e5	3.7691586
53	0x00000004	6e-45
54	0x3cbac83f	0.022800563
55	0x4044a477	3.0725381
56	0x3fbae02e	1.4599664
57	0x3f07fcfc	0.531204
58	0x3fb35ad5	1.4012095
59	0x408ca1f2	4.3947687
60	0x3fb8eeb6	1.4447849
61	0x4016d291	2.356602
62	0x00000004	6e-45
63	0x40ce0485	6.4380517

conv3.weight f4 [3, 64, 3, 3]
0	0x3cdab3d8	0.026697084
1	0x3cefa2d3	0.029252445
2	0x3c87e67f	0.016589401
3	0x3d150c54	0.03638871
4	0x3d13e460	0.036106467
5	0xbbe17493	-0.006880352
6	0x3cd1bb0b	0.025601884
7	0xbbf09350	-0.00734178
8	0xbd1e9457	-0.038715687
9	0xbbaf2e57	-0.0053461003
10	0xbcc7cb73	-0.024389004
11	0xbcec2aeb	-0.028829059
12	0x3d1e2044	0.03860499
13	0x3d1a99b7	0.03774425
14	0xbbbc6c2f	-0.005750201
15	0xba203c8b	-0.0006112537
16	0xbd0664ab	-0.03281085
17	0x3c8cb66a	0.017176826
18	0xbcc0b974	-0.023525931
19	0xbc228e78	-0.0099216625
20	0x3c93b1d6	0.018029135
21	0x3c152f98	0.0091055855
22	0x3c3329f8	0.010935299
23	0xbcee9963	-0.029125875
24	0x3c085e25	0.008323227
25	0x3bda6366	0.0066646812
26	0x3a8ea765	0.0010883628
27	0xbc5789e1	-0.0131554315
28	0xbc78d570	-0.015187606
29	0x3cc446c7	0.02395953
30	0x3c46af9a	0.012126828
31	0xbb838204	-0.004013302
32	0x3ab492ad	0.0013776623
33	0x3c84b891	0.01620129
34	0x3c83f9da	0.01611035
35	0x3d026792	0.031837054
36	0xbb567e8b	-0.0032729234
37	0x3c48e99b	0.012262727
38	0x3ab07c0c	0.0013464703
39	0xbcde65cd	-0.027148152
40	0xbc7f2dd1	-0.015574888
41	0x3cbf541e	0.02335554
42	0x3be971a7	0.007124144
43	0x3aa02565	0.0012218176
44	0xbcf32742	-0.029681806
45	0xbc888e6b	-0.016669473
46	0x3cddadaf	0.027060358
47	0x3be82bb8	0.00708529
48	0xbc17912d	-0.009250921
49	0xbcbcea81	-0.023061039
50	0x3cdc6832	0.026905153
51	0xbc107433	-0.008816767
52	0x3b276dd0	0.002554763
53	0xbbb27a40	-0.0054467022
54	0x3b9191ee	0.004442445
55	0xbd2b2b34	-0.04178925
56	0xbc410e4b	-0.011783193
57	0x3c659edb	0.014014925
58	0xbd4ca0ef	-0.049958166
59	0xbc1a6d1c	-0.009425428
60	0x3c7d50e0	0.015461177
61	0x3c0784b2	0.008271383
62	0x3c8432ac	0.016137443
63	0xbc407b63	-0.011748168
64	0x3c970a88	0.018437639
65	0xbb9f7222	-0.0048659006
66	0xbcb54890	-0.022129327
67	0x3d59e15b	0.05319343
68	0x3c6e9035	0.014560749
69	0xbc74729b	-0.014919902
70	0xbc838900	-0.016056538
71	0xbc9f5fbd	-0.019454831
72	0x3cb8d863	0.022564119
73	0x3bba2e63	0.0056817993
74	0x39ba4a1d	0.00035531903
75	0xbc601389	-0.013676533
76	0xbd420255	-0.047365505
77	0x3c589252	0.013218479
78	0xbc8af42f	-0.016962139
79	0xbcb037f1	-0.02151105
80	0xbc8f9d75	-0.017531136
81	0x3cfacfa0	0.030616581
82	0x3c64b3f3	0.013958919
83	0xbbb71683	-0.0055874004
84	0x3c6ded76	0.014521947
85	0x3cdb5370	0.026773185
86	0x3cb02727	0.021503044
87	0x3a9606ed	0.0011446156
88	0x3cc76794	0.024341382
89	0xbc78673a	-0.01516133
90	0xbbf07554	-0.0073382054
91	0xba31cb24	-0.00067822845
92	0xb9f28473	-0.0004625652
93	0x3c8a1834	0.016857244
94	0xbd73a59d	-0.059484113
95	0xbd08f684	-0.03343822
96	0x3d0e3f6e	0.03472846
97	0xbca3ed9d	-0.020010764
98	0x3d8146f8	0.06312364
99	0x3bea640f	0.007153041
100	0x3cdd2d46	0.026999127
101	0xbd1cd1da	-0.038286068
102	0xbc82f86a	-0.015987594
103	0x3d0c02c1	0.034182314
104	0x3c07409d	0.008255151
105	0xbb88691f	-0.004162922
106	0x3bafd287	0.005365673
107	0xbd358ced	-0.04432385
108	0x3a406e4d	0.0007340655
109	0xbabcfe73	-0.0014419093
110	0x39c745b8	0.00038008182
111	0xbb4de1a9	-0.0031415022
112	0xbbc43926	-0.005988258
113	0x3abd079c	0.0014421823
114	0xbaf6f67c	-0.0018841769
115	0x3bcd1e4f	0.0062597166
116	0xbbe55599	-0.0069987294
117	0xbc028243	-0.007965627
118	0xbb970cd7	-0.004609685
119	0x3c0056c4	0.007833187
120	0x3ca3d174	0.019997336
121	0xbce27a24	-0.027646132
122	0xbb1664b1	-0.00229482
123	0x3c7c70b6	0.015407732
124	0xbce0d6ab	-0.027446112
125	0x3cbdbc59	0.0231611
126	0xbbab64d5	-0.005230526
127	0xbbc43f43	-0.0059889867
128	0x3b887c37	0.004165198
129	0x3acab19e	0.0015464311
130	0xbc436b8a	-0.011927495
131	0x3c82b8c1	0.015957238
132	0xba260353	-0.0006332893
133	0x3ca9862f	0.020693867
134	0xbc1c5b9c	-0.009543326
135	0x3ca5942b	0.020212254
136	0xbc9d35a0	-0.01919061
137	0xbc94cf66	-0.018165302
138	0x3c795ab4	0.015219379
139	0xba05ceb9	-0.00051043514
140	0x3cd2f6dc	0.025752477
141	0xbb39d09f	-0.0028353108
142	0xbcd91513	-0.026499307
143	0xbc9a3284	-0.018822916
144	0xbc683661	-0.014173121
145	0xbccbbfd5	-0.024871746
146	0xbbc5c6cb	-0.006035661
147	0xbd1eec33	-0.038799476
148	0xbcc37219	-0.023858117
149	0xbb40fa7a	-0.002944617
150	0xbb888ee7	-0.004167426
151	0xbd0bae76	-0.034101926
152	0x3c11b37c	0.00889289
153	0x3c8d3d08	0.017241016
154	0xbadf7db2	-0.001705101
155	0xbca217ce	-0.019786742
156	0xbcc0536a	-0.023477275
157	0x3cd878fa	0.026424874
158	0xbcff4b7f	-0.031163929
159	0x3c0a7df0	0.008452877
160	0xbcadf119	-0.021233128
161	0x3d2cc667	0.0421814
162	0xba3807a6	-0.00070201827
163	0x3cbaf3d1	0.022821339
164	0xbc237253	-0.0099759875
165	0x3cc19d44	0.02363456
166	0x3d6f1da0	0.058377862
167	0xbc04d15d	-0.008106557
168	0xba6709f6	-0.0008813435
169	0xbb90bb4a	-0.004416858
170	0x3b28a4a4	0.00257329
171	0x3b09f439	0.002105011
172	0xbc5989e2	-0.013277503
173	0x3a8fed24	0.0010980708
174	0xbcce33c9	-0.025171177
175	0xbc8976a3	-0.016780203
176	0x3a25cb37	0.0006324532
177	0x3c44f619	0.012021565
178	0x3d26f607	0.040761974
179	0xbb9a1266	-0.0047019003
180	0xbc2144d0	-0.009843066
181	0xba99c093	-0.0011730365
182	0xbb09ff0c	-0.002105656
183	0x3a36a30b	0.00069670443
184	0x3c8f3e14	0.017485656
185	0xbc12bcee	-0.008956177
186	0x3ba20ca2	0.0049453536
187	0xbbc13663	-0.005896376
188	0x3c387031	0.011257217
189	0x3d149d71	0.03628296
190	0x3d4556cf	0.04817849
191	0x3c6df4a8	0.014523663
192	0x3d585109	0.052811656
193	0x3d20ec7d	0.039288033
194	0x3d3f624a	0.046724595
195	0xbcc0201f	-0.023452817
196	0x3cadccd5	0.021215836
197	0x3ce18257	0.027527971
198	0x3c1ca7fb	0.009561534
199	0xbd420665	-0.04736938
200	0x3c1b655f	0.009484618
201	0xbce3d144	-0.027809747
202	0xbda1d037	-0.07901042
203	0xbc56ebbc	-0.013117727
204	0xb9b958de	-0.0003535216
205	0xbcee2d78	-0.029074416
206	0x3cdefdd4	0.027220644
207	0x3c851724	0.016246386
208	0x3c0b38dd	0.008497444
209	0x3bcd95ee	0.0062739765
210	0x3c8d4b27	0.01724775
211	0x3cecaead	0.028891886
212	0xbc88b298	-0.016686723
213	0xbb6cfcb8	-0.0036161374
214	0x3d0d1b5f	0.03444993
215	0xbce4744f	-0.027887492
216	0x3bd4e633	0.0064971684
217	0xbc52b974	-0.012861598
218	0xbc6eb524	-0.0145695545
219	0xbc9c2e34	-0.019065
220	0x3cc3ee1e	0.023917254
221	0xbcccaed7	-0.024985714
222	0x3c3ab97d	0.011396763
223	0x3cc2eb2d	0.023793781
224	0xbbc1385a	-0.00589661
225	0xbc9331b5	-0.017968038
226	0xbb94e9fc	-0.0045444947
227	0x3c5bc141	0.013412775
228	0xbc9744c3	-0.018465405
229	0x3d316ffe	0.043319695
230	0xbb9a2f4b	-0.004705345
231	0xbca86844	-0.02055753
232	0xbb3c86b3	-0.002876681
233	0xb8710ccf	-5.7470806e-05
234	0xbbc47e03	-0.005996467
235	0xbb20168a	-0.0024427497
236	0x3cc08b18	0.023503825
237	0xbbbd111d	-0.0057698623
238	0xbca2b1ea	-0.019860227
239	0xb9557ea8	-0.00020360446
240	0xbc5d93b2	-0.013523983
241	0x3c28a5d0	0.010293439
242	0x3b84d351	0.004053511
243	0x3c7f172a	0.015569488
244	0xbab1f08f	-0.001357572
245	0xbb55c85a	-0.003262064
246	0x3bb915a1	0.0056483303
247	0x3bfbe55c	0.007687254
248	0xbc5d560a	-0.013509283
249	0xbc9f507e	-0.019447561
250	0x3d04e009	0.03244022
251	0xbce128a5	-0.027485201
252	0x3c755d8d	0.0149759175
253	0xbb23ca4b	-0.0024992402
254	0xbc44dd06	-0.012015587
255	0xbcc625a5	-0.024187872

conv3.bias f4 [3]
0	0xbdf45d16	-0.11931817
1	0xbdb2fea3	-0.08739974
2	0xbdd6a9bb	-0.10481592

deconv1.weight f4 [64, 3, 3, 3]
0	0x3ddb6861	0.10713268
1	0x3d22296a	0.039590277
2	0x3e032aac	0.12809247
3	0xbdcedb18	-0.101003826
4	0x3e01d002	0.12677005
5	0xbe45db04	-0.19321829
6	0x3e233fe4	0.15942341
7	0xbe247782	-0.16061214
8	0xbe03b064	-0.12860256
9	0x3e2b7004	0.1674195
10	0x3e64aafd	0.22330852
11	0x3dee0bf8	0.116233766
12	0x3db52a85	0.088460006
13	0x3e2ca434	0.16859514
14	0xbd52c1b2	-0.051454253
15	0x3e51a09c	0.20471424
16	0x3dc3ad11	0.09554494
17	0x3d903bfb	0.0704269
18	0x3d3649bf	0.044503924
19	0x3cffebca	0.031240363
20	0x3e43fa0f	0.19138359
21	0xbe001771	-0.12508942
22	0xbda17968	-0.078844845
23	0xbde15f60	-0.110045195
24	0x3e23733c	0.15961927
25	0xbd940074	-0.07226649
26	0xbbf8697e	-0.007580935
27	0xbdf38e97	-0.11892431
28	0xbd994e44	-0.07485631
29	0x3d275ca6	0.04085984
30	0xbe001ebc	-0.12511724
31	0xbd12c22e	-0.035829715
32	0xbe1bcaff	-0.15214156
33	0xbdec3bbd	-0.11534832
34	0x3ddd7b97	0.108145885
35	0xbe75d8b2	-0.24008444
36	0xbdc2ca73	-0.095112704
37	0x3c8f8114	0.017517604
38	0xbdce2c2c	-0.10067019
39	0xbd6fea04	-0.058572784
40	0x3e1b193e	0.15146348
41	0x3d7459f5	0.059656102
42	0xbe08ece7	-0.13371621
43	0xbd2fb338	-0.042895526
44	0x3d203982	0.039117344
45	0x3da5e13f	0.08099603
46	0x3e523074	0.20526296
47	0x3e2b0461	0.16700889
48	0x3dc888fd	0.097917534
49	0x3e17a2cb	0.14808194
50	0x3da5b082	0.08090307
51	0xbdf0ee46	-0.11764197
52	0xbcb308f0	-0.021854848
53	0x3df1434a	0.117804125
54	0x3ca8b93e	0.020596143
55	0xbe459ad3	-0.19297342
56	0xbe7136a3	-0.23555999
57	0xbc45a26a	-0.012062648
58	0xbd29d5d0	-0.041463673
59	0xbbbed2d0	-0.0058234707
60	0x3d812d4f	0.0630747
61	0xbe1a2e43	-0.1505671
62	0xbc113d8c	-0.008864772
63	0xbc3036b4	-0.01075523
64	0x3cd8a81b	0.026447346
65	0xbe4d2487	-0.20033465
66	0x3da7b3b1	0.0818857
67	0xbd672b5f	-0.056437846
68	0xbe08467b	-0.13308136
69	0xbe246fb4	-0.16058236
70	0x3dce11c4	0.10061982
71	0xbdae112f	-0.08499371
72	0x3b4ae24b	0.0030957635
73	0x3dfad822	0.12248255
74	0x3e2a8357	0.16651665
75	0xbe16f085	-0.14740188
76	0x3e515828	0.20443785
77	0x3c7d7104	0.01546884
78	0x3c430d66	0.01190505
79	0x3e3979df	0.18112896
80	0xbd6b9d2a	-0.05752293
81	0x3dcf52f1	0.10123242
82	0xbdd52146	-0.10406737
83	0xbe3e433f	-0.1858034
84	0xbe59b22d	-0.21259375
85	0x3dd28e0f	0.10281002
86	0xbdabaa8c	-0.083821386
87	0x3d9299a5	0.071582116
88	0x3d7173fe	0.05894851
89	0x3e066739	0.13125314
90	0xbdf05439	-0.11734814
91	0xbdd8a0f0	-0.105775714
92	0xbe14eee4	-0.14544255
93	0x3d5c10ab	0.053726833
94	0xbe0bffb8	-0.13671768
95	0xbe4d2f0b	-0.20037477
96	0xbd9a8282	-0.07544424
97	0xbd3c9eff	-0.046050068
98	0xbcf49057	-0.029853983
99	0xbd918ce8	-0.07106954
100	0x3d8290eb	0.06375297
101	0x3e217149	0.15765871
102	0x3e8164fb	0.25272354
103	0x3c19293f	0.009348213
104	0x3d859b19	0.06523723
105	0xbd958697	-0.073010616
106	0xbcd31f66	-0.025771808
107	0x3c0049d5	0.007830103
108	0xbddec4d5	-0.108773865
109	0xbe5325a8	-0.20619833
110	0xbdb28d73	-0.087183855
111	0xbc46932c	-0.012120049
112	0xbdba2e16	-0.090908214
113	0xbe4eda6f	-0.20200513
114	0xbd077267	-0.033068087
115	0x3deb3391	0.11484445
116	0xbe7bfed6	-0.24608931
117	0xbde60c02	-0.11232759
118	0xbd33a291	-0.043856207
119	0xbd6942d2	-0.05694849
120	0x3de20d31	0.11037672
121	0xbdd2c1ae	-0.10290848
122	0x3caf6f6e	0.021415439
123	0x3dd77a70	0.105214
124	0x3e073457	0.1320356
125	0x3e14ee14	0.14543945
126	0x3df254ff	0.11832618
127	0x3e1ae03f	0.15124606
128	0xbd312393	-0.043246817
129	0xbd87a7db	-0.06623813
130	0xbd941ad4	-0.072316796
131	0x3e614614	0.21999389
132	0x3e2bf481	0.1679249
133	0xbd1febd9	-0.03904328
134	0xbd8f3d8f	-0.06994163
135	0xbdbf9723	-0.09354999
136	0xbe052f59	-0.13006343
137	0xbe0959ba	-0.13413134
138	0xbabc4381	-0.001436338
139	0x3d906896	0.07051198
140	0xbd3d8e9e	-0.04627859
141	0x3e15f5f1	0.146446
142	0xbe4d97ae	-0.20077392
143	0xbe17c0da	-0.14819661
144	0x3e61e1f8	0.22058856
145	0xbde3c297	-0.111210994
146	0x3d9c03f4	0.076179415
147	0x3cd0285a	0.025409866
148	0xbcd1cb42	-0.025609616
149	0x3e2d8ed1	0.16949011
150	0x3dd58bc8	0.10427052
151	0x3dd1fabb	0.10252901
152	0x3d88ae97	0.06673925
153	0xbd0441be	-0.03228926
154	0xbd369251	-0.044573132
155	0x3e8419dd	0.25800982
156	0xbba8740b	-0.0051407865
157	0xbcd021a5	-0.025406668
158	0x3e1e5001	0.15460207
159	0x3dafc448	0.085823596
160	0xbd707be9	-0.05871192
161	0x3dd2577e	0.10270594
162	0xbd8aa581	-0.067698486
163	0xbdfd4653	-0.12366929
164	0xbd0a27f2	-0.0337295
165	0xbd69d8b9	-0.05709145
166	0xbdd62ec6	-0.1045814
167	0xbe452aa7	-0.19254552
168	0xbe371b47	-0.17881499
169	0xbe071f8e	-0.13195631
170	0xbd9142a8	-0.07092792
171	0x3dc6d2e0	0.0970819
172	0xbc700cfb	-0.014651532
173	0xbde4a935	-0.11165086
174	0x3d6f74b7	0.058460917
175	0x3e3bc3ef	0.18336461
176	0xbd36369f	-0.044485684
177	0x3e269c92	0.16270664
178	0x3e2b2dad	0.16716643
179	0xbde99b2e	-0.11406551
180	0x3d4de6a7	0.050268795
181	0x3d935e3a	0.07195707
182	0xbceeece2	-0.029165689
183	0x3e71ecd1	0.23625495
184	0xbc53f6ac	-0.012937229
185	0x3d1a250a	0.03763298
186	0x3e0c554f	0.13704418
187	0xbdbce21d	-0.09222815
188	0x3ddd7195	0.1081268
189	0x3d97dd4b	0.07415255
190	0x3e215fad	0.15759154
191	0xbd965a64	-0.073414594
192	0x3d4a744b	0.049427312
193	0xbe6369f3	-0.22208385
194	0xbe01b428	-0.1266638
195	0x3d9e3575	0.0772504
196	0xbe3330e0	-0.17499113
197	0x3dc9044a	0.09815271
198	0x3e51e113	0.20496015
199	0x3e355850	0.1770947
200	0x3dcd86e6	0.100354955
201	0x3dfc1aa5	0.123097695
202	0xbe3cd4a5	-0.18440492
203	0xbda57df6	-0.08080666
204	0x3e354a07	0.1770402
205	0x3d7507db	0.059821945
206	0x3e30a957	0.17252098
207	0x3d9642e4	0.07336977
208	0x3e579e1a	0.21056405
209	0x3e221dbf	0.1583166
210	0x3db0d3a1	0.08634115
211	0xbd16aa49	-0.03678349
212	0xbe18533b	-0.148755
213	0xbcdfc21c	-0.027314238
214	0x3e3d0ca9	0.1846186
215	0xbdeeb050	-0.11654723
216	0x3dc935b9	0.098247
217	0xbdeaa900	-0.114580154
218	0xbe4f82f8	-0.20264804
219	0xbe567c51	-0.2094586
220	0x3cfb73e7	0.030694915
221	0xbd03cc15	-0.03217705
222	0xbe6c7dc3	-0.2309485
223	0xbdcc8d26	-0.099878594
224	0xbdaf1806	-0.08549504
225	0x3e1208ed	0.14261217
226	0x3d3a7b51	0.04552776
227	0xbda31a5c	-0.07964012
228	0x3d328109	0.04358009
229	0x3cb027e6	0.0215034
230	0x3dfec86d	0.12440572
231	0xbda66e08	-0.081264555
232	0xbd5c4049	-0.053772245
233	0xbe037304	-0.12836844
234	0x3cb4af98	0.022056386
235	0x3e2f603d	0.17126556
236	0x3e505982	0.20346645
237	0x3df3bcbd	0.11901233
238	0x3e567810	0.20944238
239	0x3dc70c66	0.09719162
240	0xbc50fc39	-0.012755447
241	0xbc9959f3	-0.018719649
242	0x3db53bce	0.088492975
243	0x3db49929	0.088182755
244	0x3de75328	0.11295158
245	0x3e013ce3	0.12620883
246	0xbe327a4f	-0.1742947
247	0x3d4bfd59	0.049802158
248	0x3dc476d5	0.09592978
249	0x3dba60f6	0.09100525
250	0xbd5d5204	-0.054033294
251	0xbe095a32	-0.13413313
252	0x3e4d9a3c	0.20078367
253	0x3e372f13	0.17889051
254	0x3e0c81db	0.13721411
255	0x3c4295c6	0.011876529

deconv1.bias f4 [64]
0	0x3d0a2966	0.033730887
1	0x3d7b6587	0.06137612
2	0x3b9e0f50	0.0048236027
3	0xbe3a0568	-0.18166125
4	0x3e7571cc	0.23969191
5	0xbdeb050a	-0.114755705
6	0x3e34d5bb	0.17659657
7	0xbe52c99c	-0.2058472
8	0x3e26ba13	0.16281919
9	0xbd6a38b8	-0.057182997
10	0xbe4186c3	-0.18899064
11	0x3c1f4e8b	0.009723316
12	0x3d48da3e	0.049036257
13	0x3de0a9c0	0.10969877
14	0xbe890e47	-0.26768705
15	0xbe3de7c4	-0.18545443
16	0x3e2c5f08	0.16833127
17	0x3e51247f	0.20424078
18	0xbd415e70	-0.047209203
19	0xbe8453e7	-0.25845262
20	0x3d9b4f43	0.07583477
21	0x3cdb679c	0.026782803
22	0xbe3441db	-0.17603247
23	0x3e2d7859	0.1694044
24	0xbdc4ed24	-0.096155435
25	0x3d35d9f9	0.044397328
26	0xbd24406b	-0.040100496
27	0xbd25f41e	-0.04051601
28	0x3e2f5a2a	0.17124239
29	0xbcbbf551	-0.022944124
30	0x3da42516	0.08014886
31	0xbd0df296	-0.034655176
32	0x3ce13a8a	0.027493734
33	0xbc58fcf2	-0.013243901
34	0xbe89ee7a	-0.26939756
35	0x3df6da7d	0.12053392
36	0xbd8753f4	-0.0660781
37	0xbe544a7d	-0.2073154
38	0xbdd43e16	-0.103634045
39	0xbdf35d10	-0.11882985
40	0x3ca6f1aa	0.020378906
41	0xbd5cb46c	-0.053883
42	0x3e34cda0	0.17656565
43	0x3e494702	0.19655994
44	0xbd1dc0af	-0.038513836
45	0x3d7da466	0.06192436
46	0xbe7224c8	-0.23646843
47	0x3ea4799c	0.3212403
48	0x3d1949c6	0.03742387
49	0xbe9dab93	-0.30794963
50	0x3d8d853e	0.069101796
51	0xbda8484c	-0.082169145
52	0x3d8bb060	0.0682075
53	0x3e226b14	0.1586116
54	0xbea89108	-0.3292315
55	0xbe7f8dce	-0.24956438
56	0xbe69eaa2	-0.22843412
57	0xbe4f0553	-0.20216875
58	0xbe1b41c9	-0.15161814
59	0x3e453983	0.1926022
60	0x3db4325f	0.0879867
61	0xbc904c7b	-0.017614594
62	0xbe708f74	-0.23492223
63	0x3db77b1a	0.08959027

deconv2.weight f4 [64, 64, 3, 3]
0	0x3bf086b7	0.007340278
1	0xbbac67fa	-0.0052614184
2	0xbc211cda	-0.009833539
3	0xbd0763aa	-0.03305403
4	0xbc69ddaa	-0.01427404
5	0xbc9a48ae	-0.018833485
6	0xbb84e347	-0.004055414
7	0xbb9757a6	-0.004618603
8	0x38152eb9	3.5567882e-05
9	0x3c972bad	0.018453443
10	0x3cf0044d	0.029298926
11	0x3d5f02a3	0.054445874
12	0x3d8dd678	0.06925672
13	0x3d9ce0a7	0.076600365
14	0x3d91effc	0.071258515
15	0x3c202f73	0.009776938
16	0x3db02f2b	0.086027466
17	0x3d45c44d	0.04828291
18	0x3da3a096	0.07989614
19	0x3d4d6183	0.050141823
20	0x3d15dffb	0.036590558
21	0x3cc3d174	0.023903586
22	0x3db92219	0.09039707
23	0x3b51c112	0.0032005948
24	0x3d11e8b3	0.03562231
25	0x3cdf0b57	0.027227087
26	0x3d842186	0.064517066
27	0x3c2a10d5	0.01037999
28	0x3bebdafe	0.0071977368
29	0xb9c4c103	-0.00037527838
30	0x3ce1fe0f	0.027586965
31	0x3cda7333	0.02666626
32	0x3cef21ef	0.029190985
33	0xbc3c1b4b	-0.0114811165
34	0xbc266bf4	-0.010157574
35	0xba177820	-0.0005778093
36	0x3d7d00a3	0.061768185
37	0x3d620d53	0.05518849
38	0x3d20ec55	0.039287884
39	0x3ca8c94e	0.020603802
40	0x3da1c6c4	0.0789924
41	0x3ca1683b	0.019703021
42	0x3bd192a7	0.006395656
43	0x3d844a8e	0.06459533
44	0x3b3d3b51	0.0028874467
45	0x3cc97807	0.024593366
46	0x3cb8b458	0.022546932
47	0xbc8a08c6	-0.016849887
48	0x3d60ac69	0.054851923
49	0x3cb6fb2f	0.02233657
50	0x3bb90399	0.005646181
51	0xbc23d3df	-0.0099992445
52	0xbc69f70d	-0.014280093
53	0xbcdb0798	-0.02673702
54	0x3cfa4d43	0.03055442
55	0x3d017598	0.031606287
56	0x3d531e50	0.05154258
57	0x3c8ceacd	0.017201805
58	0x3dafb72f	0.085798614
59	0x3d722f12	0.05912692
60	0x3d16ae34	0.036787227
61	0x3d5f9513	0.054585528
62	0x3d99335d	0.074805
63	0x3c05b61a	0.008161092
64	0x3cf13cad	0.029447878
65	0x3b82d8b6	0.003993119
66	0x3c6a8f2e	0.014316363
67	0xbc22ab95	-0.009928604
68	0xbd16963e	-0.036764376
69	0x3c605340	0.013691723
70	0xbd4d52de	-0.050127856
71	0xbc565903	-0.0130827455
72	0x3d467d80	0.04845953
73	0x3d9638a4	0.07335022
74	0x3d30fd14	0.043210104
75	0x3bd3cb74	0.0064634625
76	0x3d877729	0.06614525
77	0x3d9e2280	0.07721424
78	0x3d3dbbcf	0.046321686
79	0x3ce5fab7	0.028073652
80	0x3d9176dd	0.071027495
81	0x3c9061c1	0.017624738
82	0x3c6b9959	0.014379823
83	0x3ba713b6	0.0050987853
84	0xbd5b5285	-0.053545494
85	0x3bea268f	0.00714571
86	0xbc8fb273	-0.017541146
87	0xbccfb080	-0.025352716
88	0xbc18ae1f	-0.009318857
89	0xbd6ba0e0	-0.05752647
90	0xbd65f5d9	-0.05614266
91	0x3c7d6986	0.015467053
92	0xbc6ab266	-0.01432476
93	0xbbb2ee0d	-0.005460507
94	0x3c4b1354	0.012394745
95	0xbcb46f84	-0.022025831
96	0xbd0c4a56	-0.03425058
97	0xbd0b4cf8	-0.03400895
98	0xbd4e40be	-0.05035471
99	0x3c2236b1	0.009900735
100	0xbd136008	-0.035980254
101	0x3b0e0a50	0.0021673627
102	0x3bdbab6f	0.006703786
103	0xbd0845fe	-0.033269875
104	0xbc6dc1a6	-0.014511501
105	0xbd5ed5dd	-0.054403175
106	0xbca1b7c6	-0.01974095
107	0x3c2348e1	0.009966106
108	0x3b34c489	0.0027582964
109	0xbd188d9c	-0.037244424
110	0x3c9fdba0	0.019513905
111	0x3ca7bfcf	0.020477204
112	0xbd3119a4	-0.043237343
113	0xbd1479ff	-0.036249157
114	0xbbb8df93	-0.0056418865
115	0xbd614831	-0.055000488
116	0xbca94bcb	-0.020666024
117	0xbc61194a	-0.01373894
118	0xbd2ff6d5	-0.042960007
119	0x3c8e6f14	0.01738695
120	0xbcc0e109	-0.023544805
121	0x3c5ae533	0.013360309
122	0xbc0749db	-0.008257355
123	0x3d002d99	0.031293485
124	0xbcf13424	-0.029443808
125	0x3c17c20e	0.009262575
126	0x3ca2ca63	0.019871896
127	0xbca66a34	-0.020314313
128	0xbc5e1d71	-0.013556824
129	0xbcd92b5e	-0.026509937
130	0x3a862c61	0.0010236615
131	0xbcff5961	-0.031170549
132	0xbd1bf3b6	-0.038074218
133	0x3bc93d5c	0.006141348
134	0xbc9abdfb	-0.018889418
135	0xbd431ce6	-0.04763498
136	0xbd2afac1	-0.041743044
137	0xbd02355f	-0.03178918
138	0xbce40647	-0.027835025
139	0xbcc16fe7	-0.02361293
140	0x3c8243d9	0.015901493
141	0xbce24bff	-0.027624128
142	0xbd6dd717	-0.058066454
143	0xbcec45b7	-0.028841836
144	0x3b4e05d3	0.0031436577
145	0x3bac5ebe	0.0052603176
146	0xbc074df9	-0.008258336
147	0xbc91ec43	-0.017812854
148	0x3cb9d180	0.022682905
149	0xbc76c2eb	-0.0150611205
150	0x3c81e188	0.015854612
151	0x3c267cf6	0.010161629
152	0xbcd8a736	-0.02644692
153	0x3d495357	0.049151745
154	0x3d869824	0.06571987
155	0xbaf35d51	-0.0018567239
156	0x3d734ed1	0.059401337
157	0x3d36380a	0.044487037
158	0x3d55da4a	0.05221013
159	0x3d95e3d4	0.073188454
160	0x3c901f6e	0.017593112
161	0x3c4e85cb	0.012605141
162	0x3d94177a	0.0723104
163	0x3c816862	0.015796844
164	0x3d2a6ae1	0.041605834
165	0x3d17a08f	0.037018355
166	0x3c582564	0.013192508
167	0x3d5f14a9	0.054463062
168	0x3d8895d8	0.066692054
169	0x3bd987e8	0.0066385157
170	0x3d141a8b	0.036158126
171	0x3a9b0898	0.0011828123
172	0x3cb91a49	0.022595542
173	0x3c2573c4	0.010098401
174	0xbcccbb0c	-0.024991535
175	0x3d202333	0.03909607
176	0x3c857a93	0.0162938
177	0x3d1ffb97	0.039058294
178	0xbcdac2fc	-0.026704304
179	0xbcbb6f95	-0.022880355
180	0x3ce4ec9e	0.02794486
181	0x3d108ad5	0.03528865
182	0x3c8c1c78	0.017103419
183	0x3d617002	0.05503846
184	0x3c69f25f	0.014278977
185	0x3dad9fed	0.08477769
186	0x3d8601c8	0.065433085
187	0x3d783956	0.060601555
188	0x3d8a5a37	0.06755488
189	0x3d1935a5	0.037404675
190	0x3c365111	0.011127726
191	0xbcd42b01	-0.025899412
192	0x3bc6db89	0.006068651
193	0x3bd56817	0.0065126526
194	0xbce7e7f0	-0.028308839
195	0x3d27f3e9	0.041004095
196	0x3c014ea1	0.007892282
197	0xbc1569ba	-0.009119445
198	0x3c33fbfa	0.010985369
199	0xbd0316bb	-0.0320041
200	0xbb1cbada	-0.0023915083
201	0xbc456fc2	-0.012050571
202	0xbbc9944b	-0.006151711
203	0xbd9183cf	-0.071052186
204	0x3b3972b2	0.0028297123
205	0xbd872ff7	-0.066009454
206	0xbd7bc042	-0.06146265
207	0x3b883133	0.0041562556
208	0x3da212e5	0.0791376
209	0x3c281425	0.010258709
210	0x3b775638	0.00377406
211	0x3d9c6dc1	0.076381214
212	0x3d538a25	0.051645417
213	0x3d359aca	0.04433707
214	0x3d459bcb	0.04824428
215	0x3d4f19f4	0.05056186
216	0xbd888443	-0.06665852
217	0xbd463f76	-0.048400365
218	0xbd7015f7	-0.058614697
219	0xbcc8168f	-0.02442482
220	0xbd786eae	-0.060652427
221	0xbc9cb706	-0.019130241
222	0x3c885e60	0.016646564
223	0xbcee0a62	-0.029057685
224	0x39ada18f	0.00033117502
225	0xbd2372cb	-0.039904397
226	0xbb8cdf27	-0.004299063
227	0xbc2535cb	-0.010083626
228	0x3c1e49cb	0.009661148
229	0xbc11d746	-0.008901423
230	0xbc00efae	-0.007869644
231	0xbb158617	-0.002281552
232	0xbc0f971f	-0.008764057
233	0xbbe37c5c	-0.006942315
234	0x3cd55802	0.026042942
235	0xbd39a56d	-0.045323778
236	0x3bf51fb4	0.007480586
237	0xbd5a1dcc	-0.053251073
238	0xbc8f019d	-0.017456824
239	0xbc49ad65	-0.012309407
240	0xbcac79a1	-0.021054091
241	0xbb665484	-0.003514559
242	0xbd0e35db	-0.03471933
243	0x3c8c2be8	0.01711078
244	0xbd2c1465	-0.042011637
245	0xbd284e38	-0.04109022
246	0x3c9918f0	0.018688649
247	0xbcdfc88c	-0.027317308
248	0xbc914c61	-0.017736616
249	0x3d171b24	0.036891118
250	0xbc666f41	-0.014064611
251	0x3c842e08	0.01613523
252	0x3a0ac3d6	0.0005293464
253	0x3b218e82	0.0024651592
254	0x3caf46fe	0.021396156
255	0x3d8429f7	0.06453317

deconv2.bias f4 [64]
0	0x3cd45ca6	0.025923084
1	0x3daacd85	0.08339981
2	0xbc7243ba	-0.014786655
3	0x3da2f92d	0.07957683
4	0x3d256613	0.04038055
5	0xbcec2f7b	-0.028831234
6	0x3c840523	0.01611573
7	0x3d184427	0.03717437
8	0xbccb89e3	-0.024846023
9	0xbb5efa8f	-0.0034023856
10	0x3d1d5fb7	0.03842136
11	0xbd852852	-0.06501831
12	0xbd004634	-0.03131695
13	0x3d5fc0e2	0.054627307
14	0xbd4348a8	-0.047676712
15	0x3c06fd9c	0.008239176
16	0xbc941aa1	-0.018079104
17	0x3cd95f4a	0.026534695
18	0xbc441eb6	-0.011970213
19	0xbbde10ca	-0.0067769038
20	0x3c300118	0.010742448
21	0x3cba46c8	0.02273883
22	0x3d11ed58	0.03562674
23	0x3c067a92	0.008207934
24	0x3d9b1576	0.07572453
25	0x3dd2c024	0.10290554
26	0xbd1fdee1	-0.039030913
27	0x3b984d82	0.0046479115
28	0xbcf015a1	-0.029307188
29	0x3d288f2c	0.041152164
30	0xbce9b90c	-0.02853062
31	0x3c22d426	0.009938275
32	0x3d4ef79d	0.05052911
33	0x3c87e0a4	0.01658661
34	0xbb61a595	-0.003443097
35	0xbcd54540	-0.026033998
36	0x3cc30d31	0.023810001
37	0xbb8c5d23	-0.0042835637
38	0xbadc77b9	-0.0016820348
39	0xbdf17ee6	-0.11791782
40	0x3d2b6a08	0.041849166
41	0x3cd34c28	0.02579315
42	0xbc45e84a	-0.012079308
43	0x3d103c73	0.0352139
44	0xbd341d9c	-0.04397355
45	0x3d87d630	0.0663265
46	0xbd416d74	-0.047223523
47	0x3db2db87	0.08733278
48	0x3d0812f4	0.0332212
49	0xbcb7c900	-0.022434711
50	0x3cc4cc1e	0.024023112
51	0x3c7cca13	0.015429038
52	0x3cedc442	0.029024247
53	0x3d690103	0.05688573
54	0xbcb59348	-0.022164956
55	0xbba12efe	-0.004918932
56	0x3cf5d520	0.030008852
57	0x3d60c086	0.054871105
58	0xbce1846a	-0.02752896
59	0xbcb6a21d	-0.022294099
60	0x3c773162	0.015087457
61	0xbd8ef882	-0.06980993
62	0x3bd4ea73	0.006497675
63	0x3c0068a8	0.007837452

bn2.running_mean f4 [64]
0	0x405040d1	3.253956
1	0x405b977d	3.431121
2	0x303072e5	6.41917e-10
3	0x40076982	2.1158147
4	0x40494ce7	3.1453187
5	0x319a48e5	4.490277e-09
6	0x405af56a	3.421229
7	0x4052fbb8	3.2966137
8	0x00000004	6e-45
9	0x40019bb1	2.0251276
10	0x408324a1	4.0982213
11	0x16dd0f3b	3.5714087e-25
12	0x40d0d6c0	6.5262146
13	0x40de24cd	6.9419923
14	0x00000004	6e-45
15	0x40b97fe0	5.7968597
16	0x3fefc141	1.8730851
17	0x40c13f12	6.038949
18	0x40aee833	5.4658446
19	0x40118d0b	2.2742336
20	0x3fbab600	1.4586792
21	0x4034ddf0	2.826046
22	0x404a6b77	3.1628091
23	0x4000b36e	2.0109515
24	0x406fd7ff	3.7475584
25	0x3ffbb427	1.9664353
26	0x3faf651c	1.3702731
27	0x3ff8d743	1.9440693
28	0x40a31970	5.096855
29	0x4048dcf3	3.1384857
30	0x34182ff2	1.4173546e-07
31	0x403bcb46	2.9342818
32	0x40880756	4.2508955
33	0x40f7f638	7.748806
34	0x40bad80e	5.838874
35	0x400aeb13	2.1705978
36	0x404c23e4	3.1896906
37	0x4049cfdc	3.1533117
38	0x4090df52	4.527261
39	0x3ff851dd	1.9399983
40	0x40959928	4.674946
41	0x400043a8	2.0041294
42	0x31ecf0de	6.8958874e-09
43	0x40bb8119	5.859509
44	0x00000004	6e-45
45	0x4040d4b8	3.0129833
46	0x00000004	6e-45
47	0x408c9ee6	4.394397
48	0x4048b486	3.1360183
49	0x4028bc3e	2.6364894
50	0x4010331e	2.25312
51	0x407cc6e3	3.949639
52	0x400f1b91	2.2360575
53	0x4065fc59	3.593527
54	0x2f7d66a2	2.3046678e-10
55	0x4051908a	3.274447
56	0x325d14bc	1.28686075e-08
57	0x405c3de3	3.4412773
58	0x31858a94	3.886564e-09
59	0x2da53a7b	1.8784299e-11
60	0x3fda577d	1.7057949
61	0x00000004	6e-45
62	0x400d9060	2.211937
63	0x40ba0ceb	5.814077

bn2.running_var f4 [64]
0	0x41b1d298	22.227829
1	0x41a38c9e	20.44366
2	0x2c3baeba	2.667129e-12
3	0x4103e37c	8.243038
4	0x41c5fe0d	24.749048
5	0x2ec0e6e6	8.772165e-11
6	0x417cfba0	15.811432
7	0x41c5c06c	24.718956
8	0x00000004	6e-45
9	0x4100a971	8.041368
10	0x41cd7840	25.683716
11	0x138b8fc5	3.52303e-27
12	0x420c545f	35.082394
13	0x41bb69da	23.426685
14	0x00000004	6e-45
15	0x4230c1be	44.1892
16	0x4129646e	10.587019
17	0x42453981	49.306156
18	0x421b7847	38.86746
19	0x415ce4ef	13.805892
20	0x40d62e3d	6.6931443
21	0x4144114f	12.254226
22	0x41e4e59a	28.61211
23	0x40bcd43b	5.900907
24	0x41a3692a	20.42635
25	0x41799324	15.598423
26	0x40c4eace	6.1536627
27	0x41083efe	8.515379
28	0x420c4ae2	35.073128
29	0x416d1623	14.817904
30	0x316ed057	3.4751986e-09
31	0x4170a88e	15.041151
32	0x422350da	40.828957
33	0x4200a365	32.159565
34	0x418e9bad	17.826014
35	0x4150d950	13.053055
36	0x4150ba30	13.045456
37	0x41b15fb3	22.171728
38	0x4204b228	33.17398
39	0x4108e2b4	8.555347
40	0x41cf19ab	25.887533
41	0x40ef1abd	7.472014
42	0x2ec7574f	9.0649814e-11
43	0x421c1b12	39.026436
44	0x00000004	6e-45
45	0x41c7c4c8	24.971085
46	0x00000004	6e-45
47	0x41cc1096	25.508099
48	0x417aaece	15.667677
49	0x413230df	11.136931
50	0x41184b7e	9.518431
51	0x41997e33	19.18662
52	0x4148f901	12.560792
53	0x41939423	18.447332
54	0x2bcad6f1	1.4412621e-12
55	0x416dce21	14.862824
56	0x2f0af677	1.2638589e-10
57	0x4193bf41	18.468386
58	0x2f94cdcf	2.706728e-10
59	0x29547b58	4.718044e-14
60	0x4151c88d	13.111463
61	0x00000004	6e-45
62	0x41918ab1	18.19272
63	0x422318be	40.774162
